CNN-lstm/models_500/cnn_lstm_model.pt (torch, 605386 bytes, 30 tensors)

conv2Dblock.0.module.weight f4 [16, 1, 3, 3]
0	0x3defa017	0.117004566
1	0xbd535163	-0.05159129
2	0x3d4ff559	0.05077109
3	0x3e0900b6	0.13379177
4	0x3daf11cd	0.08548317
5	0x3daeb9ad	0.085315086
6	0x3e0b8f48	0.13628876
7	0x3c46d962	0.012136789
8	0x3d861a10	0.0654794
9	0x3e83615d	0.2566022
10	0xbe68e5b5	-0.22743876
11	0x3f254b9e	0.6456851
12	0x3cfb84a7	0.030702902
13	0xbe50dadc	-0.20395988
14	0x3eb3dea4	0.351308
15	0xbe361c99	-0.17784347
16	0xbef8fa4a	-0.48628455
17	0x3e43ee81	0.19133951
18	0xbe9e1ba1	-0.30880454
19	0xbeb1a7ca	-0.34698325
20	0xbeb760ef	-0.35816142
21	0x3e810cfd	0.25205222
22	0x3e044f7a	0.12920943
23	0xbd0ef6b5	-0.034903247
24	0x3eb53f88	0.35400033
25	0x3ea67125	0.32508197
26	0x3ec51513	0.3849264
27	0x3e687b8a	0.22703376
28	0x3e793cda	0.2433962
29	0x3e86f7c6	0.2636091
30	0x3e25acd9	0.16179217
31	0x3e387cad	0.1801631
32	0x3e2c8162	0.1684623
33	0xbe8b19cc	-0.2716812
34	0xbea3d786	-0.3200037
35	0xbe8769a9	-0.264478
36	0x3ebdc51a	0.3706444
37	0x3e499944	0.19687372
38	0x3f045c0a	0.5170294
39	0x3ca9f3ee	0.020746198
40	0xbd0ae320	-0.03390801
41	0x3e2d0bfa	0.168991
42	0xbeb2082e	-0.34771866
43	0xbea4a466	-0.32156676
44	0xbe59b566	-0.21260604
45	0x3d0469ea	0.03232757
46	0x3cd9d9dd	0.026593143
47	0xbd29aa85	-0.041422386
48	0x3e82cc88	0.2554667
49	0x3e94e173	0.29078254
50	0x3e9319a7	0.2873051
51	0xbdf52a86	-0.11971001
52	0xbe067b00	-0.13132858
53	0xbd995994	-0.07487789
54	0x3d2216c5	0.039572496
55	0xbd1e9a46	-0.038721345
56	0x3d9bf5d0	0.076152444
57	0x3de075b8	0.10959953
58	0x3e1f1a27	0.1553732
59	0x3e019a91	0.12656619
60	0x3da2efc4	0.07955888
61	0x3d5b47f5	0.05353542
62	0x3d9c6444	0.07636312
63	0x3e7d6606	0.2474595
64	0xbed5a3d9	-0.41726568
65	0x3de70c34	0.112816244
66	0x3ea68126	0.32520407
67	0xbf1f40cb	-0.6220824
68	0x3dbfe587	0.09369951
69	0x3eb6642e	0.35623306
70	0xbea408cc	-0.3203796
71	0x3e3573d0	0.1771996
72	0xbec2844e	-0.37991565
73	0xbeaa4968	-0.3325913
74	0xbe8770d3	-0.26453266
75	0xbd926c1f	-0.07149529
76	0xbea0471b	-0.3130425
77	0xbe45bb5b	-0.19309752
78	0x3f20a688	0.62754107
79	0x3ee00ab5	0.4375817
80	0x3ebf8bb6	0.37411278
81	0x3efb5937	0.49091503
82	0x3ecdbbdf	0.40182397
83	0x3f18bf4c	0.59666896
84	0xbef8e5a2	-0.48612696
85	0xbded8dce	-0.11599313
86	0xbe5efd1e	-0.21776244
87	0xbe1a9a37	-0.15097891
88	0xbe669946	-0.22519407
89	0xbebb272c	-0.36553323
90	0xbc9e2283	-0.019303566
91	0xbd72700f	-0.0591889
92	0xbd74633b	-0.059664946
93	0x3e495e2f	0.19664834
94	0x3e7264b5	0.23671229
95	0x3e3bea36	0.18351063
96	0x3a8d58c6	0.0010783903
97	0x3c9916a7	0.01868756
98	0x3d71060a	0.05884365
99	0xbeb3369a	-0.35002595
100	0xbd8dc909	-0.0692311
101	0x3efc3a54	0.4926325
102	0xbebcabf2	-0.36849934
103	0xbdfeb4fd	-0.124368645
104	0xbd00e08c	-0.031464145
105	0x3ef84276	0.48488206
106	0xbdc25bcf	-0.09490167
107	0xbed78205	-0.42091385
108	0xbe9239d4	-0.28559744
109	0x3e8013fe	0.25015253
110	0xbe10eb13	-0.14152174
111	0xbe4468c3	-0.19180588
112	0xbe21534d	-0.15754433
113	0xbe644e07	-0.2229539
114	0x3d0bd6a0	0.03414023
115	0xbdacb0c8	-0.08432156
116	0x3e62110e	0.22076818
117	0xbf017081	-0.5056229
118	0xbe726b5b	-0.23673765
119	0x3d835f87	0.06414705
120	0xbe808116	-0.25098485
121	0xbd38e475	-0.04513975
122	0x3edcc5eb	0.4311975
123	0xbc5f34e8	-0.013623454
124	0x3e12af14	0.143246
125	0x3f045f82	0.51708233
126	0x3ed878f7	0.4227979
127	0xbe7517c1	-0.23934843
128	0xbee568d4	-0.4480654
129	0x3f0cf21a	0.5505692
130	0xbda981c2	-0.082767025
131	0xbec9c599	-0.39408568
132	0x3f5df471	0.86701113
133	0x3e0cd379	0.13752545
134	0xbe9f5e14	-0.31126463
135	0xbecad644	-0.39616597
136	0x3e1a1416	0.15046725
137	0x3f27a8a5	0.65491706
138	0xbe8af22c	-0.27137887
139	0xbdc516d0	-0.09623492
140	0x3edae862	0.4275542
141	0xbee1f47a	-0.44131833
142	0xbdfaccca	-0.12246092
143	0x3f0bb348	0.54570436

conv2Dblock.0.module.bias f4 [16]
0	0x389b89b5	7.416626e-05
1	0x3c907eef	0.017638652
2	0xbc81b470	-0.01583311
3	0x3c2e5c3c	0.010642108
4	0x3bb6d2f9	0.005579349
5	0xbc9362b5	-0.017991403
6	0xbcbb7c9b	-0.022886565
7	0x3c00480b	0.007829676
8	0xbc1c14e5	-0.009526466
9	0x3c820d16	0.01587538
10	0xbc95e758	-0.01829879
11	0xbcbaeb35	-0.022817234
12	0x3a2af0f7	0.0006520892
13	0xbaec7043	-0.0018038828
14	0x3c4a1b1a	0.012335563
15	0x3baea86d	0.0053301365

conv2Dblock.1.module.weight f4 [16]
0	0x3efca8fb	0.49347672
1	0x3f132a83	0.5748674
2	0x3f01edd7	0.5075354
3	0x3ef0c7ff	0.47027585
4	0x3ee2ddb1	0.44309762
5	0x3f1f3895	0.6219571
6	0x3f1d13e1	0.6135846
7	0x3ec3a0bb	0.38208565
8	0x3ecd4d68	0.4009812
9	0x3eb877bd	0.36028853
10	0x3f19e9b8	0.6012225
11	0x3eede47b	0.4646338
12	0x3f2a050e	0.6641396
13	0x3edba323	0.428979
14	0x3f4892d1	0.78349024
15	0x3f2808b2	0.6563827

conv2Dblock.1.module.bias f4 [16]
0	0xbe43d27d	-0.19123264
1	0xbef70846	-0.482485
2	0xbe845945	-0.25849357
3	0xbe4bb93d	-0.19894882
4	0xbd94f0b0	-0.0727247
5	0xbec2e970	-0.38068724
6	0xbe8a348c	-0.26993215
7	0xbd99e79f	-0.07514881
8	0x3e1f7c11	0.15574671
9	0x3d9ea722	0.07746722
10	0xbece20ca	-0.4025939
11	0x3db1c6f9	0.08680529
12	0xbdfa5dc0	-0.12224913
13	0xbe4808cd	-0.19534607
14	0xbed6239c	-0.41824043
15	0xbf037cf5	-0.51362544

conv2Dblock.1.module.running_mean f4 [16]
0	0xbb92cda3	-0.00448008
1	0x3c7692e3	0.015049669
2	0xbc97d890	-0.018535882
3	0x3c039af6	0.008032551
4	0x3b55a502	0.0032599573
5	0xbcb15cd6	-0.021650713
6	0xbce3b9b8	-0.027798519
7	0x3c0db970	0.008650169
8	0xbc0a5894	-0.00844397
9	0x3c87abb3	0.016561365
10	0xbcb74b82	-0.022374872
11	0xbc9dfa43	-0.019284373
12	0x3b9ee17c	0.004848657
13	0xbb31e5b7	-0.0027144977
14	0x3c13f7b9	0.00903123
15	0x3b086128	0.0020809863

conv2Dblock.1.module.running_var f4 [16]
0	0x3eb3ea25	0.35139576
1	0x3e9aa704	0.30205548
2	0x3e9a6c44	0.30160725
3	0x3e55fb94	0.2089675
4	0x3e7c8de3	0.246635
5	0x3e815792	0.25262123
6	0x3ecbf5f4	0.39836085
7	0x3e4eaeeb	0.20183913
8	0x3e67dea1	0.2264352
9	0x3e47ec0e	0.19523641
10	0x3e930f85	0.28722778
11	0x3e5f7bd0	0.21824574
12	0x3e9cb9f3	0.30610618
13	0x3e76f39d	0.24116369
14	0x3f479bcc	0.779721
15	0x3f20e3f1	0.6284781

conv2Dblock.5.module.weight f4 [32, 16, 3, 3]
0	0x3d3ab4b3	0.045582484
1	0x3d61196e	0.054955892
2	0x3d987373	0.07443895
3	0x3bccb3cb	0.006247019
4	0x3ce380b0	0.027771324
5	0x3df72dc0	0.12069273
6	0xbd6b4e9d	-0.05744802
7	0xbdb39862	-0.08769299
8	0xbd5ff413	-0.054676127
9	0x3c1ecc0c	0.009692203
10	0xbd720c39	-0.059093688
11	0x3da4d2db	0.0804803
12	0x3d9eafe1	0.0774839
13	0xbcbbb051	-0.022911223
14	0x3c72e4ef	0.01482509
15	0x3d981c3e	0.07427262
16	0xbd9558d5	-0.07292334
17	0x3d0af0f4	0.033921197
18	0xbd8ad68e	-0.06779204
19	0xbd981adf	-0.07427
20	0xbdb350d0	-0.08755648
21	0xbe5cf50a	-0.2157785
22	0xbe13f4b2	-0.14448813
23	0xbdbdf302	-0.09274866
24	0xbd03341e	-0.032032125
25	0xbe3cec39	-0.18449487
26	0xbe1888f5	-0.14895995
27	0x3dddfd0e	0.10839282
28	0x3c48e545	0.012261693
29	0x3e08025e	0.13282153
30	0x3d0c8a92	0.03431184
31	0xbbf83217	-0.0075743305
32	0x3b32e973	0.002729979
33	0xbbf9c59b	-0.0076224334
34	0x3d482767	0.048865702
35	0x3d73db30	0.059535205
36	0x3d92608f	0.07147323
37	0x3d473617	0.04863557
38	0xbc30c304	-0.010788683
39	0x3d349a53	0.044092488
40	0x3c7061e2	0.014671775
41	0xbce23ccd	-0.027616883
42	0xbc511fad	-0.0127639
43	0x3db8e2d3	0.09027638
44	0x3defe03a	0.1171269
45	0x3d6a0fe5	0.057144064
46	0x3c91d401	0.017801287
47	0x3d8c66eb	0.068555675
48	0xbbefef43	-0.0073222234
49	0xbc633345	-0.013867204
50	0x3bfd3c58	0.007728141
51	0xbdec350d	-0.11533556
52	0xbccb000a	-0.024780292
53	0xbb4e42db	-0.0031472954
54	0x3e1b2f99	0.15154876
55	0x3d375a23	0.044763695
56	0xbd396f2f	-0.04527205
57	0xbd3c6f5a	-0.04600463
58	0x3d98c5ef	0.07459628
59	0x3d89882a	0.06715424
60	0xbe0686b7	-0.13137327
61	0xbdacc3e9	-0.084358044
62	0xbd1013c6	-0.035175107
63	0xbd5214b0	-0.05128926
64	0xbe33c9b3	-0.17557411
65	0x3cb16e88	0.02165915
66	0xbc667cb8	-0.014067821
67	0xbe08bcd9	-0.1335329
68	0xbc19df4f	-0.00939162
69	0xbb99bb20	-0.0046914965
70	0xbd9ddfa7	-0.07708674
71	0xbc88f6c5	-0.016719231
72	0xbdd3d024	-0.10342434
73	0xbdad0c8c	-0.08449659
74	0xbd821804	-0.06352237
75	0xbe56c71b	-0.2097439
76	0xbe824682	-0.25444418
77	0xbe44c3bc	-0.19215292
78	0x3d058bd0	0.03260404
79	0xbdea94e2	-0.114541784
80	0xbddc0e2e	-0.10744892
81	0xba2121f8	-0.00061467243
82	0xbcbba70e	-0.022906806
83	0xbb81cf63	-0.00396149
84	0x3d21708a	0.039413966
85	0xbd6f8d44	-0.05848433
86	0x3d2078f2	0.039177842
87	0x3dbc6a44	0.09199956
88	0xba5d5f31	-0.00084446656
89	0x3cccd1ed	0.025002444
90	0xbcc91ec3	-0.024550801
91	0x3dcd47f7	0.10023492
92	0x3e22a138	0.15881813
93	0xbcfc94d5	-0.030832687
94	0xbc92fd8a	-0.017943162
95	0x3caf853f	0.021425841
96	0xbde04c0d	-0.109520055
97	0xbddbcf53	-0.10732903
98	0xbda329b0	-0.07966936
99	0xbcdb2f34	-0.026755907
100	0xbdc7e9f2	-0.097614184
101	0xbdd6ce8d	-0.10488615
102	0xbcb33269	-0.021874623
103	0xbd53ac99	-0.051678274
104	0xbd876671	-0.06611336
105	0x3dd01698	0.101605594
106	0xbd0e2728	-0.03470531
107	0xbd51c264	-0.051210776
108	0xbc351e7b	-0.01105463
109	0x3c0337cc	0.0080089085
110	0x3c1ded75	0.009639134
111	0xbdd7f148	-0.105440676
112	0xbd97a63f	-0.07404756
113	0xbda6e36c	-0.08148846
114	0xbc7147c0	-0.014726579
115	0xbdc46a02	-0.09590532
116	0xbdb0668f	-0.086133115
117	0x3d0403f9	0.03223035
118	0xbccd027a	-0.025025595
119	0xbb745f92	-0.003728841
120	0x3d6ff41a	0.058582403
121	0xbc831a08	-0.016003624
122	0xbe0ff19d	-0.14057012
123	0xbc8a57e5	-0.016887615
124	0xbd50838b	-0.0509067
125	0xbe3060b4	-0.1722439
126	0x3c84f9ad	0.016232336
127	0xbd105bb4	-0.035243705
128	0xbd8cdc50	-0.06877959
129	0xbdb1e4af	-0.08686196
130	0xbda57165	-0.08078269
131	0xbdb76632	-0.08955039
132	0xbda7cc23	-0.08193233
133	0xbdc5e128	-0.09662086
134	0xbdbcea66	-0.092243955
135	0x3df50fc6	0.11965899
136	0x3d3817b2	0.044944473
137	0x3c75823e	0.014984665
138	0x3dade749	0.0849138
139	0x3c7860ff	0.015159844
140	0xbc594970	-0.013262138
141	0x3ceaf2a4	0.028680153
142	0x3c0a1ac3	0.008429232
143	0xbdacd236	-0.08438532
144	0xbd84013d	-0.06445549
145	0xbd10b6dc	-0.03533064
146	0xbccdd52b	-0.02512606
147	0x3c1bdb12	0.00951268
148	0x3e2bab7a	0.16764632
149	0xbd6e7c79	-0.058224175
150	0x3db98afc	0.09059712
151	0x3d86c2f1	0.06580151
152	0xbc16395a	-0.009168947
153	0xbd22237b	-0.039584618
154	0xbd709f53	-0.058745693
155	0xbdd17aeb	-0.10228523
156	0xbdce5ad3	-0.10075917
157	0xbd2c6b86	-0.04209473
158	0xbdbd4c3a	-0.09243055
159	0xbd873fc6	-0.06603961
160	0xbce78b3f	-0.02826464
161	0x3ce97721	0.028499188
162	0xbcbe20eb	-0.023209056
163	0x3d620d16	0.05518826
164	0x3d6887ad	0.056770016
165	0x3dd22ba9	0.10262234
166	0xbe0992c4	-0.13434893
167	0x3c4e3cd3	0.012587744
168	0xbd762ed9	-0.06010327
169	0x3de89514	0.113565594
170	0xbc138485	-0.009003763
171	0xbdf89a4c	-0.12138805
172	0xbdd6b454	-0.104836136
173	0xbe0264e9	-0.12733807
174	0xbcf2b781	-0.029628517
175	0xbc427021	-0.011867554
176	0xbd3cd6f6	-0.04610344
177	0xbd1b3638	-0.037893504
178	0x3c713ece	0.014724446
179	0x3a9b8386	0.0011864759
180	0xbe1c11b7	-0.15241133
181	0xbe05b7fa	-0.13058463
182	0xbe2c82ec	-0.16846818
183	0xbe412fe6	-0.18865928
184	0xbdf8eede	-0.12154935
185	0xbe01d6f4	-0.12679654
186	0xbca29a0b	-0.019848844
187	0x3b26ba0e	0.0025440487
188	0xbd07c9c9	-0.03315142
189	0xbde239e1	-0.11046196
190	0xbd6165d3	-0.055028748
191	0xbdc6215d	-0.09674332
192	0x3cead85e	0.028667625
193	0x3bf42e4e	0.007451809
194	0x3c8281b1	0.015930982
195	0xbdc5157e	-0.0962324
196	0xbcce7f1a	-0.025207091
197	0x3d43eaa9	0.04783121
198	0xbdc9170b	-0.09818848
199	0xbd260ddd	-0.040540565
200	0xbcbac026	-0.022796702
201	0x3db1ecea	0.08687766
202	0xbd352301	-0.044222835
203	0x3d5dfce7	0.054196265
204	0x3bccf503	0.0062547936
205	0x3e1ed4ae	0.15510818
206	0x3ba44394	0.0050129388
207	0xbe462cd4	-0.19353038
208	0xbd8a4272	-0.06750955
209	0xbe07a94d	-0.13248177
210	0xbe2286a0	-0.15871668
211	0xbd976d9e	-0.07393955
212	0xbe31b86e	-0.1735551
213	0xbdf8073a	-0.12110753
214	0xbc99b4fe	-0.018763062
215	0xbe14c436	-0.14527974
216	0xbccc766e	-0.024958815
217	0xbd0fe31e	-0.035128705
218	0x3dd9834d	0.10620747
219	0xbcde5923	-0.027142113
220	0xbc941a5b	-0.018078974
221	0x3c416352	0.011803465
222	0xbdc68c07	-0.09694677
223	0xbda6f66b	-0.08152469
224	0xbdd1461d	-0.10218451
225	0xbdebebdd	-0.11519597
226	0xbe1de76d	-0.15420313
227	0xbe31f69f	-0.17379235
228	0xbe23c2e6	-0.15992317
229	0xbe077212	-0.13227108
230	0xbe161a18	-0.14658391
231	0xbde9b3be	-0.11411236
232	0xbd8d1c5d	-0.068901755
233	0xbd3af0d9	-0.045639846
234	0xbd50d316	-0.050982557
235	0xbd880a57	-0.06642597
236	0xbd35c75e	-0.044379584
237	0x3d974d3d	0.07387779
238	0x3bd1da0b	0.0064041666
239	0xbc6c1770	-0.014409885
240	0xbcabe64b	-0.020983836
241	0x3c7f50f2	0.015583264
242	0x3de9925e	0.114048705
243	0xbd8d919c	-0.069125384
244	0xbda8aa79	-0.0823564
245	0xbe3916b6	-0.1807507
246	0xbe00d4c7	-0.12581168
247	0xbe33c6c2	-0.17556289
248	0xbe1d2295	-0.15345223
249	0xbe5ee39b	-0.21766512
250	0xbe460093	-0.19336157
251	0xbd8169e8	-0.06319028
252	0xbd1a2a94	-0.037638262
253	0xbd1ed6d0	-0.03877908
254	0xbdabb90f	-0.083849065
255	0xbda62054	-0.08111635

conv2Dblock.5.module.bias f4 [32]
0	0xbb945d64	-0.0045277346
1	0x3ba1a04c	0.004932439
2	0x3aa30a4e	0.0012438984
3	0xbb6e452e	-0.0036357152
4	0x39b7b70c	0.0003504086
5	0x39798701	0.00023796783
6	0xbb45b152	-0.0030165506
7	0xbba1e5a3	-0.004940705
8	0xbbb5c470	-0.005547099
9	0x3958e5fd	0.00020685043
10	0xba0977f5	-0.000524401
11	0xbb37854f	-0.0028003042
12	0xbae17b12	-0.0017202816
13	0xb9ccd776	-0.00039070443
14	0x3b36f481	0.0027916732
15	0xb90d04ef	-0.00013448646
16	0x3af848bf	0.0018942578
17	0xbb480fd3	-0.003052701
18	0xbb2486c6	-0.0025104745
19	0xbbb7daad	-0.005610785
20	0x3979e2dc	0.00023831002
21	0x3b7f4dc5	0.0038956266
22	0xba401840	-0.0007327832
23	0xbba9ea59	-0.005185407
24	0xba1cf9ee	-0.000598817
25	0xbbaea8f4	-0.0053301994
26	0xb863e66d	-5.433562e-05
27	0x3abf2781	0.0014583917
28	0xbb86f681	-0.004118741
29	0x3b933b8e	0.0044931835
30	0xbb3ed8ab	-0.0029120843
31	0xbba221f8	-0.004947897

conv2Dblock.6.module.weight f4 [32]
0	0x3eece2ce	0.46266788
1	0x3f304e1f	0.68869203
2	0x3ee3295f	0.443675
3	0x3ea879c1	0.3290539
4	0x3ecff314	0.4061514
5	0x3ec45159	0.38343313
6	0x3f248773	0.6426918
7	0x3ec12965	0.37726894
8	0x3eed9865	0.4640533
9	0x3edf12fd	0.43569174
10	0x3f2e5575	0.6809915
11	0x3f194c8b	0.5988242
12	0x3f16d4d4	0.589185
13	0x3f155cf6	0.5834497
14	0x3ebeef18	0.3729179
15	0x3e9797f2	0.29608113
16	0x3eb53540	0.3539219
17	0x3eb6e8b2	0.35724407
18	0x3f14fb6a	0.5819613
19	0x3eb0cddf	0.34532067
20	0x3ed32a38	0.41243148
21	0x3ef4ba8d	0.47798577
22	0x3f1c0f8a	0.6096121
23	0x3edae310	0.4275136
24	0x3f2150f4	0.6301415
25	0x3f1bf99e	0.6092776
26	0x3ed3ad63	0.4134322
27	0x3efe1851	0.49627927
28	0x3eb353af	0.35024783
29	0x3ec5f1bd	0.38660994
30	0x3f070de3	0.52755564
31	0x3ead4053	0.33838138

conv2Dblock.6.module.bias f4 [32]
0	0xbebbb0a2	-0.36658198
1	0xbf166934	-0.5875428
2	0xbe770401	-0.24122621
3	0xbec84492	-0.39114815
4	0xbed603cd	-0.41799775
5	0xbec9134a	-0.3927253
6	0xbf10adc6	-0.5651516
7	0xbe3b2f2e	-0.18279716
8	0xbdfc5def	-0.12322604
9	0xbed6c318	-0.4194572
10	0xbf06c51f	-0.5264453
11	0xbe9e48ca	-0.3091491
12	0xbf2a7b9f	-0.6659488
13	0xbf257587	-0.6463246
14	0xbeef157e	-0.46696085
15	0xbeb2961f	-0.34880158
16	0xbeac8a74	-0.3369938
17	0xbe9ef923	-0.3104945
18	0xbf27bb07	-0.65519756
19	0xbeb7381c	-0.35784996
20	0xbef5edb7	-0.48032925
21	0xbf0ac377	-0.54204506
22	0xbf1105a6	-0.56649244
23	0xbef7fbc9	-0.48434284
24	0xbf0ebb68	-0.5575471
25	0xbee21cd0	-0.44162607
26	0xbee7e172	-0.4528919
27	0xbf268409	-0.6504522
28	0xbecb3829	-0.39691284
29	0xbeba8061	-0.3642607
30	0xbe9db7de	-0.30804342
31	0xbecec952	-0.4038797

conv2Dblock.6.module.running_mean f4 [32]
0	0xbf680cdf	-0.9064464
1	0xbfe9a800	-1.8254395
2	0xbe84260d	-0.2581028
3	0xbe4416d5	-0.19149335
4	0xbf13954a	-0.5764967
5	0xbf7129d3	-0.94204444
6	0xbf8cc7e0	-1.0998497
7	0xbe86e4e9	-0.2634652
8	0xbdca6abb	-0.098836385
9	0xbf52285e	-0.82092845
10	0xbfc7ab87	-1.5599221
11	0xbf16f289	-0.5896383
12	0xbf6a1274	-0.9143441
13	0xbf6699e0	-0.90078545
14	0xbf34d0b5	-0.7063096
15	0xbf048482	-0.5176469
16	0xbf402d0d	-0.7506874
17	0xbf2d9958	-0.6781211
18	0xbfa78350	-1.3086948
19	0xbeda632d	-0.4265379
20	0xbf10c026	-0.56543195
21	0xbf548b60	-0.8302517
22	0xbf93532b	-1.1509756
23	0xbf1b4105	-0.60646087
24	0xbfa67d4e	-1.300699
25	0xbf8a191a	-1.078891
26	0x3f9d1462	1.2271845
27	0xbf4bc07e	-0.79590595
28	0xbebb7a35	-0.36616674
29	0xbf02da4d	-0.5111435
30	0xbf54a5d0	-0.8306551
31	0x3ed88c9b	0.42294773

conv2Dblock.6.module.running_var f4 [32]
0	0x3f12e789	0.57384545
1	0x3f549dcc	0.8305328
2	0x3f3dfed9	0.7421699
3	0x3f0cdfd8	0.5502906
4	0x3f22bafe	0.6356658
5	0x3f2a468e	0.6651391
6	0x3f6bb571	0.9207373
7	0x3f0f6db6	0.5602678
8	0x3f3220bf	0.69581217
9	0x3ef2adb3	0.47398147
10	0x3f4a811b	0.7910325
11	0x3f7ddc93	0.99164695
12	0x3f733323	0.94999903
13	0x3f4def80	0.80443573
14	0x3ebe188c	0.37128103
15	0x3e8d7314	0.2762686
16	0x3ef92dea	0.48667842
17	0x3ef2156a	0.47281963
18	0x3f54a974	0.83071065
19	0x3f02a935	0.5103944
20	0x3f164438	0.58697844
21	0x3f19d467	0.60089725
22	0x3f6844de	0.90730083
23	0x3ec07989	0.37592724
24	0x3f52b4d0	0.8230715
25	0x3f4f21fd	0.80911237
26	0x3f324288	0.6963277
27	0x3ef29bf8	0.4738462
28	0x3ef21d75	0.472881
29	0x3efea54b	0.49735484
30	0x3f425e12	0.7592479
31	0x3f2a8a70	0.6661749

conv2Dblock.10.module.weight f4 [64, 32, 3, 3]
0	0xbd106d74	-0.035260633
1	0x3cff480d	0.031162286
2	0x3d6471f0	0.05577272
3	0x3c6ba488	0.014382489
4	0xbc24c39f	-0.010056405
5	0xbce14393	-0.027498042
6	0xbdda40c0	-0.10656881
7	0xbd507273	-0.050890397
8	0xbd153114	-0.036423758
9	0xbe4b2f55	-0.19842274
10	0xbe68e03e	-0.22741792
11	0xbe2154ed	-0.15755053
12	0x3d72ea62	0.059305556
13	0x3ccf3160	0.025292099
14	0x3cb71fcc	0.02235403
15	0x3bd6320d	0.0065367282
16	0xbc655532	-0.013997363
17	0x3d8a1b79	0.06743521
18	0xbe2619cb	-0.16220777
19	0xbe1a10d9	-0.1504549
20	0xbdff8a2c	-0.12477526
21	0xbda2f97a	-0.0795774
22	0xbd65e643	-0.056127798
23	0xbd18a250	-0.03726417
24	0x3ce4b866	0.02791996
25	0x3c807219	0.015679406
26	0x3d815686	0.06315331
27	0x3c041da5	0.008063708
28	0xbd061bd5	-0.032741386
29	0x3d602763	0.054725062
30	0xbd9453d1	-0.07242549
31	0xbd700ef3	-0.058608007
32	0xbd534d0f	-0.05158716
33	0xbdcc963a	-0.09989591
34	0xbd985933	-0.074388884
35	0xbdf50fdb	-0.11965915
36	0xbda9e931	-0.08296431
37	0xbdfd6a4b	-0.123737894
38	0xbd702b09	-0.05863479
39	0x3d93a133	0.07208481
40	0x3cd97a9c	0.026547723
41	0x3d34173e	0.043967478
42	0xbe01f198	-0.12689817
43	0xbe0f9fc7	-0.14025794
44	0xbde602f7	-0.11231034
45	0xbd27201a	-0.0408021
46	0xbdc2d9f7	-0.0951423
47	0xbcda78da	-0.026668955
48	0xbd135b5a	-0.03597579
49	0xbd3b6cec	-0.045758173
50	0xbc5bb0ba	-0.013408834
51	0xbdbf7c25	-0.093498506
52	0xbdac85fd	-0.08423994
53	0xbd09152a	-0.03346745
54	0xbde73cd2	-0.112908974
55	0xbdd005db	-0.10157367
56	0xbda639e1	-0.08116508
57	0x3d1ab654	0.037771538
58	0x3cec2ea1	0.028830828
59	0x3e2ff9f8	0.171852
60	0xbddf01f5	-0.10889045
61	0xbd9b4c46	-0.075829074
62	0xbc069a00	-0.008215427
63	0xbddb57e5	-0.10710124
64	0xbdc4ac00	-0.09603119
65	0xbe1dc3c0	-0.15406704
66	0xbde4863f	-0.11158418
67	0xbd64d4e1	-0.05586708
68	0xbd1c4e91	-0.038160864
69	0x3cd8503d	0.026405448
70	0xbc820c11	-0.015874894
71	0xbd20d073	-0.039261293
72	0xbd8542e8	-0.06506902
73	0xbe060df9	-0.13091268
74	0xbdf208e7	-0.11818104
75	0x3d35917c	0.044328198
76	0xbd6eabac	-0.058269188
77	0x3d68e290	0.05685669
78	0xbc914db0	-0.01773724
79	0x3db1b9c9	0.08678014
80	0x3c9b0498	0.018923089
81	0x3bc37bc4	0.0059656817
82	0x3d053b67	0.032527354
83	0xbcd87e58	-0.026427433
84	0x3c080ded	0.008304101
85	0x3b0ece15	0.0021790315
86	0x3c4f19cf	0.012640431
87	0xbce80774	-0.028323866
88	0xbdba0093	-0.09082141
89	0xbdc22aca	-0.094808176
90	0xbe09b1a9	-0.13446678
91	0xbe3b95de	-0.18318889
92	0xbd5383c1	-0.051639322
93	0xbdd3cf25	-0.10342244
94	0xbd452d30	-0.048138797
95	0xbd26da7a	-0.0407357
96	0xbc3a66ad	-0.011377019
97	0xbdd68a36	-0.104755804
98	0x3dea08ee	0.114274845
99	0xbe13d473	-0.14436512
100	0xbe36a352	-0.1783574
101	0xbe229d46	-0.15880308
102	0xbd85d0c7	-0.06533962
103	0xbd372201	-0.044710163
104	0xbd7197b5	-0.05898257
105	0x3c9006c7	0.017581357
106	0x3c8ca2b1	0.017167421
107	0x3dad5f27	0.084654145
108	0xbc569c8b	-0.013098846
109	0xbd05695a	-0.032571174
110	0xbd4a03d0	-0.049320042
111	0xbdaa7704	-0.08323482
112	0xbdbe97dc	-0.093063086
113	0x3c41a825	0.011819874
114	0xbdaa4d10	-0.0831548
115	0xbdc5b6ba	-0.09653993
116	0xbd3a09ea	-0.04541961
117	0x3d158a11	0.036508624
118	0x3d63be9e	0.05560171
119	0x3daca967	0.084307484
120	0xbc5b15f1	-0.01337193
121	0xbd281257	-0.041033115
122	0xbc4d8efa	-0.012546295
123	0x3db6f3b3	0.08933201
124	0x3d9eebd5	0.07759825
125	0x3cb04b59	0.021520304
126	0x3c3170c6	0.01083011
127	0xbd12f3c5	-0.035877008
128	0xbdb7f0e7	-0.08981495
129	0xbc919c93	-0.017774856
130	0x3c9bfc2b	0.019041141
131	0x3d84c976	0.06483738
132	0xbd1a5623	-0.037679803
133	0xbc9a57d9	-0.018840717
134	0xbd998fa1	-0.07498098
135	0xbd08f051	-0.03343231
136	0xbd1c205b	-0.038116794
137	0xbd7f9754	-0.062400177
138	0xbd4c9bd9	-0.049953315
139	0xbdadd7e6	-0.08488445
140	0xbcb33691	-0.021876605
141	0xbd6f53f3	-0.05842967
142	0xbd9799f4	-0.07402411
143	0xbda2e2bf	-0.07953405
144	0x3d97b38e	0.07407294
145	0x3df0363a	0.11729093
146	0x3d59abd5	0.053142387
147	0x3d0d3441	0.03447366
148	0xbcf8edd2	-0.030386839
149	0x3cf831c9	0.030297177
150	0xbe05fb30	-0.13084102
151	0xbd904731	-0.07044829
152	0xbd614150	-0.054993927
153	0x3bdd2821	0.0067491685
154	0xbc0749a6	-0.008257305
155	0x3d051df8	0.032499284
156	0x3c0c4ad6	0.008562764
157	0xbd970a2c	-0.07374987
158	0xbc2a4706	-0.01039291
159	0xbe1514f0	-0.14558768
160	0xbdc8b112	-0.097993985
161	0xbdda8966	-0.10670738
162	0xbdaa8b0f	-0.083273046
163	0xbd2bd5f2	-0.04195208
164	0xbd266186	-0.04062035
165	0x3d8e18f8	0.06938356
166	0x3d9d7d1d	0.07689879
167	0x3d4fa84c	0.05069761
168	0xbe23e7ca	-0.1600639
169	0xbe007dc3	-0.12547974
170	0xbd2fee1e	-0.042951696
171	0xbd6d1023	-0.057876717
172	0xbe21013d	-0.15723129
173	0xbe20972e	-0.1568267
174	0x3d869326	0.06571035
175	0x3ac87a95	0.0015295321
176	0x3d157259	0.036486004
177	0xbe213cdd	-0.15745874
178	0xbdc20cc8	-0.09475094
179	0xbd865285	-0.06558708
180	0x3cb4cb48	0.022069588
181	0xbc1e3a0c	-0.009657394
182	0xbc8e44bf	-0.017366765
183	0x3bd1589c	0.006388737
184	0xbcfb006a	-0.030639846
185	0x3d52261f	0.051305886
186	0xbe07be37	-0.13256155
187	0xbdfbe551	-0.12299598
188	0xbc8d5b4b	-0.017255446
189	0x3d530537	0.051518645
190	0x3dc29d11	0.09502614
191	0x3cfed696	0.031108182
192	0x3d8a16ab	0.06742605
193	0x3db5e186	0.08880906
194	0x3dab5ccb	0.08367308
195	0xbd9ef64a	-0.0776182
196	0xbd3ee50d	-0.04660516
197	0xbcdeafb5	-0.027183393
198	0x3bee9a33	0.0072815656
199	0x3b595e0e	0.0033167633
200	0x3d2f0467	0.042728808
201	0x3cfdeb7b	0.030996075
202	0x3d2b3bd2	0.041805096
203	0x3d91bb58	0.07115811
204	0x3c58882c	0.01321606
205	0x3dc4a947	0.096025996
206	0x3dd18edd	0.10232327
207	0xbc46732b	-0.012112419
208	0xbb418958	-0.0029531326
209	0x3ce5bbdd	0.028043682
210	0xbd44e847	-0.04807308
211	0xbc62c97c	-0.013841983
212	0xbd0683cb	-0.03284053
213	0xbd63eab5	-0.055643756
214	0xbd127af0	-0.035761774
215	0xbd7cc595	-0.061711866
216	0xbb583152	-0.0032988382
217	0xbc36b7fe	-0.011152266
218	0x3aabc64b	0.001310536
219	0x3d90e93d	0.07075737
220	0xbc874625	-0.01651294
221	0x3e25a004	0.16174322
222	0xbdafaefe	-0.08578299
223	0xbb1e335d	-0.0024139502
224	0x3d701692	0.058615275
225	0xbc54a174	-0.012977947
226	0xbd64e85a	-0.05588565
227	0xbda1fb1a	-0.07909222
228	0x3d5a6dd1	0.053327385
229	0x3d0c3304	0.03422834
230	0x3d9fd4d6	0.07804267
231	0xbd94145d	-0.072304465
232	0xbcdd2240	-0.02699387
233	0xbd95e817	-0.07319658
234	0x3e0aa41d	0.13539167
235	0x3c3654d9	0.011128628
236	0x3d9795c3	0.07401612
237	0xbd861277	-0.06546491
238	0xbcfbf1b7	-0.030754907
239	0xbcf5c26f	-0.02999994
240	0x3d4e7bbb	0.050410967
241	0x3e2b190e	0.16708776
242	0x3db6bc09	0.089225836
243	0x3d1ca629	0.0382444
244	0x3d8d9aa2	0.069142595
245	0xbc5f6ee2	-0.013637276
246	0xbc1815a5	-0.009282504
247	0xbd21d42d	-0.039508987
248	0xbda75611	-0.08170713
249	0xbdd5cbb9	-0.10439248
250	0xbdbccccd	-0.0921875
251	0xbcb1ff56	-0.021728199
252	0xbd1a2833	-0.037635993
253	0xbdb62940	-0.088945866
254	0xbe07b732	-0.13253477
255	0xbd7efb7b	-0.06225155

conv2Dblock.10.module.bias f4 [64]
0	0x3addca4d	0.0016921252
1	0x3a1be9c3	0.0005947614
2	0x3b574e9a	0.0032853247
3	0xba842c47	-0.0010083996
4	0xb9da9e2b	-0.00041698045
5	0xbae21dd1	-0.0017251318
6	0x3b83e844	0.004025491
7	0x3b01aa8e	0.0019785496
8	0xba4730f7	-0.0007598544
9	0x3b819bf8	0.0039553605
10	0x3b1a5e12	0.0023554605
11	0xbb747da8	-0.0037306342
12	0x3a700252	0.0009155619
13	0xba336c6c	-0.0006844464
14	0xbaa87e13	-0.0012854956
15	0xbb539f83	-0.0032291121
16	0xba18c29b	-0.00058273383
17	0x3aafd5da	0.0013415173
18	0xbb3f812e	-0.0029221284
19	0x3b50443b	0.003177895
20	0xbb0663cf	-0.0020506268
21	0xbb67044e	-0.0035250369
22	0x3a9147e2	0.0011084045
23	0x3acc0c00	0.0015567541
24	0xbb3503a1	-0.0027620571
25	0xbb8004e4	-0.003906833
26	0x39d91055	0.00041401634
27	0xbb2fa773	-0.0026802688
28	0x3a606ebb	0.0008561422
29	0xbaf4a307	-0.0018664309
30	0x3a9817ff	0.0011603831
31	0x3a3d7050	0.00072265137
32	0x3b44ff53	0.0030059412
33	0xbb7e1c91	-0.003877435
34	0x3b27111a	0.002549237
35	0xba8d867e	-0.0010797528
36	0x3b286f72	0.0025701192
37	0x3ae3a049	0.0017366494
38	0xba8bdac7	-0.0010670059
39	0x3ad96260	0.0016585104
40	0xb9cf9b43	-0.00039597796
41	0x3af9c378	0.0019055447
42	0x3aac8ddb	0.0013164835
43	0x3b6196e0	0.0034422204
44	0x3b5abd56	0.0033377013
45	0x3a71af2e	0.0009219524
46	0xba9699af	-0.0011489893
47	0x3b7efdae	0.003890853
48	0xbac9a691	-0.0015384724
49	0xbaacc1de	-0.0013180336
50	0xbae733b7	-0.0017639314
51	0xbb5c4f37	-0.0033616552
52	0x3a81a565	0.000989121
53	0x3b36afea	0.002787585
54	0xbb511d22	-0.0031908234
55	0xba991e00	-0.0011681914
56	0xbb571f09	-0.0032824895
57	0xbaa65d88	-0.0012692669
58	0x3b724020	0.003696449
59	0xba3e04b8	-0.0007248628
60	0x39eabdee	0.00044773467
61	0xba818212	-0.0009880683
62	0xbad28ab6	-0.0016063068
63	0xbb254e7d	-0.0025223785

conv2Dblock.11.module.weight f4 [64]
0	0x3f17fedc	0.5937326
1	0x3f1f6a55	0.62271625
2	0x3eb7c1c8	0.3589003
3	0x3ef03f6f	0.46923396
4	0x3ed502f7	0.41603824
5	0x3ef5e49e	0.48025984
6	0x3eda7c81	0.42673114
7	0x3f1f9918	0.6234298
8	0x3f2b1eab	0.6684367
9	0x3f091ab2	0.5355636
10	0x3f1fc6d6	0.62412775
11	0x3edf796b	0.43647322
12	0x3eb5840d	0.3545231
13	0x3f023c24	0.5087302
14	0x3f2b481a	0.66906893
15	0x3eb996b9	0.36247805
16	0x3eebabf1	0.46029618
17	0x3f021696	0.50815713
18	0x3f127162	0.5720426
19	0x3f0240c0	0.5088005
20	0x3ee1ea14	0.441239
21	0x3ed599ae	0.4171881
22	0x3f031afd	0.51213056
23	0x3f25171d	0.64488393
24	0x3f0a3ed8	0.5400214
25	0x3f224a8a	0.6339499
26	0x3f04c51a	0.51863253
27	0x3eeaad06	0.4583513
28	0x3f0ddc6e	0.55414474
29	0x3eecf6fc	0.46282184
30	0x3f108bbf	0.56463236
31	0x3ed5aaf1	0.4173198
32	0x3ee3d57e	0.4449882
33	0x3f278839	0.65442234
34	0x3ed822ee	0.4221415
35	0x3e8cf707	0.27532217
36	0x3ea557cf	0.32293555
37	0x3ed65d06	0.41867846
38	0x3eca787c	0.39545047
39	0x3eeb2de8	0.4593346
40	0x3efcbe81	0.49364093
41	0x3ee6532c	0.4498533
42	0x3ec59ce7	0.3859627
43	0x3f0a7962	0.54091465
44	0x3f009699	0.50229794
45	0x3ef55bbc	0.4792155
46	0x3ef1f04a	0.47253639
47	0x3ec2d10c	0.38050115
48	0x3ec8b4e3	0.39200506
49	0x3f23d48d	0.639962
50	0x3eb516e4	0.35369027
51	0x3f15aa8c	0.5846336
52	0x3eb16260	0.34645367
53	0x3ee8b67c	0.45451725
54	0x3ef9bb49	0.487757
55	0x3e901f7f	0.2814903
56	0x3ed1ec0a	0.41000396
57	0x3f1e2a8a	0.6178366
58	0x3ea9f540	0.33194923
59	0x3ef65999	0.48115233
60	0x3ec14b24	0.3775264
61	0x3ecb820d	0.39747658
62	0x3edcc025	0.43115345
63	0x3f37bb58	0.7177024

conv2Dblock.11.module.bias f4 [64]
0	0xbf295739	-0.66148716
1	0xbf1f7922	-0.6229421
2	0xbf015e83	-0.5053484
3	0xbf14defb	-0.5815274
4	0xbedc8962	-0.43073565
5	0xbef2de18	-0.4743507
6	0xbef83321	-0.48476508
7	0xbed122da	-0.40846902
8	0xbf01cd08	-0.5070348
9	0xbf03e6bb	-0.5152394
10	0xbf09e399	-0.5386291
11	0xbf015b7e	-0.5053023
12	0xbed40d2e	-0.41416305
13	0xbf0cc849	-0.5499311
14	0xbf0afacb	-0.5428893
15	0xbf13ab3a	-0.57683146
16	0xbf0d0dd5	-0.5509923
17	0xbedeb010	-0.434937
18	0xbf2991ee	-0.66238296
19	0xbede8cf9	-0.4346693
20	0xbeec4db0	-0.4615302
21	0xbecb3f8e	-0.39696926
22	0xbf0a320b	-0.5398261
23	0xbf28576d	-0.657584
24	0xbf098040	-0.5371132
25	0xbf206d68	-0.6266694
26	0xbeecb8fb	-0.4623488
27	0xbed780c7	-0.42090437
28	0xbf014e71	-0.5051032
29	0xbecab7f3	-0.39593467
30	0xbf2c44fe	-0.67292774
31	0xbed7fa73	-0.42183265
32	0xbf0168be	-0.5055045
33	0xbf346e4b	-0.70480794
34	0xbf0529b3	-0.5201675
35	0xbe772fa2	-0.24139264
36	0xbf20b0f6	-0.6277002
37	0xbf04c19c	-0.51857924
38	0xbf0271ad	-0.50954705
39	0xbef06a9d	-0.4695634
40	0xbef5fdcd	-0.48045197
41	0xbef9010c	-0.4863361
42	0xbed40430	-0.41409445
43	0xbf12f1d4	-0.5740025
44	0xbec5be60	-0.38621807
45	0xbeea806e	-0.4580111
46	0xbed790d7	-0.42102692
47	0xbee79da5	-0.4523746
48	0xbf02dff5	-0.5112298
49	0xbf24a7db	-0.6431863
50	0xbefc4225	-0.49269214
51	0xbf05e39a	-0.5230042
52	0xbef44147	-0.47706053
53	0xbf07336a	-0.52812827
54	0xbf40a20e	-0.75247276
55	0xbeda63e5	-0.42654338
56	0xbf002c1e	-0.5006732
57	0xbf155b01	-0.58341986
58	0xbee70470	-0.45120573
59	0xbebee126	-0.3728115
60	0xbed34868	-0.4126618
61	0xbefe0ced	-0.49619237
62	0xbf1d7e2c	-0.6152065
63	0xbf1529e0	-0.5826702

conv2Dblock.11.module.running_mean f4 [64]
0	0xbfad23bf	-1.3526534
1	0xbfe355c8	-1.7760553
2	0xbec67cdc	-0.38767135
3	0xbf440ba5	-0.7658027
4	0xbf8ce2de	-1.1006734
5	0xbfa6da2c	-1.3035331
6	0xbf65731e	-0.8962878
7	0xbfc8be36	-1.5683048
8	0xbfa7ec29	-1.3118945
9	0xbfa3f6ba	-1.280967
10	0xbf9f8293	-1.2461723
11	0xbfa01754	-1.2507119
12	0xbfa8d7f4	-1.3190904
13	0xbf808d4e	-1.0043123
14	0xbfaddb76	-1.3582599
15	0xbe921dad	-0.28538266
16	0xbf4b2a8f	-0.79361814
17	0xbf8053f7	-1.0025624
18	0xbfbc2a22	-1.4700358
19	0xbf122f98	-0.5710387
20	0xbf50327c	-0.81327033
21	0xbf1aaada	-0.6041695
22	0xbf371ad3	-0.71525306
23	0xbfb347a5	-1.4006239
24	0xbfd0a02d	-1.6298882
25	0xbfc68ab4	-1.5511079
26	0xbfbd2ed0	-1.4779911
27	0xbf92b172	-1.1460402
28	0xbf48de22	-0.7846395
29	0xbfac6323	-1.3467754
30	0xbf94d11c	-1.1626315
31	0xbf0957af	-0.5364942
32	0xbfa8f4d6	-1.3199718
33	0xbfc83987	-1.5642556
34	0xbf558607	-0.83407634
35	0xbf1f8a91	-0.6232081
36	0x3f27e93f	0.6559028
37	0xbf5d73bd	-0.8650473
38	0xbf41403b	-0.7548863
39	0xbf6e5472	-0.93097603
40	0xbf8b160e	-1.0866106
41	0xbfa0374e	-1.2516878
42	0xbf822623	-1.0167888
43	0xbf80b916	-1.0056484
44	0xbf656b23	-0.896166
45	0xbf69bbf3	-0.9130241
46	0xbfa2add0	-1.2709293
47	0xbf375888	-0.7161946
48	0xbf775cd0	-0.96625996
49	0xbfcc57df	-1.5964316
50	0xbf434fb0	-0.7629347
51	0xbf8363db	-1.0264848
52	0xbf09bd36	-0.5380434
53	0xbf652276	-0.8950571
54	0xbf8d65f0	-1.1046734
55	0xbf170085	-0.5898517
56	0xbf9d56bb	-1.2292093
57	0xbfa37569	-1.2770206
58	0xbf018f54	-0.50609326
59	0xbf2fd5b9	-0.6868549
60	0xbf7517af	-0.95739263
61	0xbfb3c108	-1.4043283
62	0xbf8f00f2	-1.1172163
63	0xbfdf6186	-1.7451637

conv2Dblock.11.module.running_var f4 [64]
0	0x3f79a6e2	0.9752027
1	0x3f8e7c47	1.1131676
2	0x3f0339a9	0.5125986
3	0x3f42d7f8	0.7611079
4	0x3f60417b	0.87599915
5	0x3fa35a6d	1.2761971
6	0x3f7d76e4	0.9900954
7	0x3f939f23	1.153294
8	0x3f994e3f	1.1977004
9	0x3f9354ef	1.1510295
10	0x3fae49e0	1.3616295
11	0x3f6b6f1f	0.9196643
12	0x3f3dc54a	0.74129164
13	0x3f9a664a	1.2062466
14	0x3fb25657	1.3932599
15	0x3f2fb389	0.68633324
16	0x3f790529	0.972735
17	0x3fa79281	1.3091584
18	0x3f96e3ed	1.1788307
19	0x3f56a341	0.83842856
20	0x3f86bdd8	1.0526686
21	0x3f7eeef2	0.9958335
22	0x3f7b7f65	0.98241264
23	0x3fa1cc76	1.2640522
24	0x3f902647	1.1261681
25	0x3f8b1f9b	1.086902
26	0x3f892025	1.0712935
27	0x3f9a7ca4	1.2069287
28	0x3f85edd8	1.0463209
29	0x3f7fa2a3	0.9985754
30	0x3f8412f6	1.0318286
31	0x3f41c13b	0.7568547
32	0x3f9cfe19	1.2265044
33	0x3fa8cf7e	1.3188322
34	0x3f40fa6a	0.753821
35	0x3f19eb13	0.6012432
36	0x3f492d1b	0.7858445
37	0x3f486419	0.78277737
38	0x3f1e2320	0.61772346
39	0x3f88d205	1.0689093
40	0x3f879719	1.0592986
41	0x3f6aac1f	0.91668886
42	0x3f43487e	0.7628249
43	0x3f80fecb	1.0077757
44	0x3f6eacf5	0.9323266
45	0x3f99137e	1.1959074
46	0x3f7a723b	0.9783055
47	0x3f55da76	0.8353647
48	0x3f4d5308	0.8020482
49	0x3f92a580	1.1456757
50	0x3f29cd01	0.66328436
51	0x3f92f016	1.1479518
52	0x3f186284	0.5952532
53	0x3f817bb9	1.0115882
54	0x3f4311ba	0.76198924
55	0x3f1124e5	0.5669692
56	0x3f65f468	0.8982606
57	0x3f9e5c0c	1.237184
58	0x3f0d7504	0.55256677
59	0x3f95beff	1.1698912
60	0x3f617650	0.88071156
61	0x3f46f909	0.7772375
62	0x3f64fe66	0.8945068
63	0x3fa8a88e	1.3176439

conv2Dblock.15.module.weight f4 [128, 64, 3, 3]
0	0x3b8a2cbb	0.004216758
1	0xbcf1f175	-0.029534081
2	0x3c88c3de	0.01669496
3	0x3ce16c5c	0.02751749
4	0xba9a3029	-0.001176362
5	0xbd496d9b	-0.049176794
6	0xbd6da4db	-0.058018547
7	0x3a3c8446	0.0007191341
8	0x3cf82f0b	0.03029587
9	0x3d1cc7b1	0.038276378
10	0x3d375fe4	0.044769183
11	0xbb94f5f9	-0.004545924
12	0xbbfefdc1	-0.0077817147
13	0xbc9febd3	-0.01952163
14	0x3d20aff2	0.039230295
15	0xbd98f3f4	-0.07468405
16	0xbcacf6ca	-0.021113772
17	0x3c8dd789	0.01731469
18	0x3d8748c3	0.06605675
19	0x3d1c8b36	0.0382187
20	0xbd42710c	-0.04747109
21	0xbc295112	-0.01033427
22	0xbcc71f3d	-0.024306888
23	0xbd28f898	-0.041252702
24	0x3dd92134	0.10602036
25	0x3d502d06	0.050824188
26	0x3d8bc3b3	0.06824436
27	0xbc0f08dc	-0.00873014
28	0xbb860e33	-0.004091048
29	0xbd570584	-0.052495494
30	0xbda55d1c	-0.080744
31	0xbd4d60f8	-0.050141305
32	0x3d5bdf52	0.05367977
33	0xbcda09d8	-0.026616022
34	0x3be9d26d	0.0071356804
35	0xbca5ff66	-0.020263385
36	0x3d219f78	0.039458722
37	0x3d5fdbc5	0.054652948
38	0x3c9b68ec	0.01897093
39	0xbb077f16	-0.0020675114
40	0xbcd4e905	-0.025990019
41	0xbc10a386	-0.0088280495
42	0xbcc538ad	-0.024074877
43	0xbd1e140b	-0.038593333
44	0x3abe5d73	0.00145237
45	0x3d304be6	0.043041132
46	0xbd8e43fa	-0.06946559
47	0x3cee66e3	0.029101795
48	0x3cff8c19	0.031194733
49	0xbdc2528f	-0.09488403
50	0xbb0c5e4f	-0.0021418517
51	0xbca6f7ad	-0.020381773
52	0x3bd7d6c3	0.006586881
53	0x3da1b8fd	0.07896612
54	0xbb9a6ede	-0.0047129234
55	0xbb398c19	-0.0028312264
56	0x3d510779	0.051032517
57	0xbc83c714	-0.016086139
58	0xbdfac7ba	-0.12245126
59	0x3bd7c2b5	0.00658449
60	0xbd73a39e	-0.05948221
61	0x3d36f26a	0.044664778
62	0xbdfa1689	-0.122113295
63	0x3d43633a	0.04770205
64	0xbbcd7eeb	-0.0062712333
65	0xbd400631	-0.046880905
66	0x3c5b7966	0.013395643
67	0xbd2ec7f7	-0.04267117
68	0xbceca33f	-0.028886436
69	0xbd2e6f58	-0.042586654
70	0x3c9cadda	0.019125868
71	0x3cd4bf2c	0.025970064
72	0x3c7c494b	0.015398334
73	0xbd50ed3f	-0.051007506
74	0xbd224e59	-0.0396255
75	0x3c732b2d	0.014841837
76	0x3d6dedf5	0.05808826
77	0xbcdb9ac0	-0.026807189
78	0xbde21fb0	-0.110412
79	0x3c9f956c	0.01948043
80	0x3d996094	0.07489124
81	0x3d389802	0.04506684
82	0x3d1c4819	0.038154695
83	0xbdfaf4b8	-0.12253708
84	0x3ad0c61f	0.0015928185
85	0x3db50fc7	0.088409
86	0x3d0e6aee	0.034769945
87	0x3b4c1100	0.0031138062
88	0x3b0fc59e	0.0021937857
89	0xbcc72609	-0.024310129
90	0xbd222fa2	-0.039596207
91	0xbc1a94af	-0.009434863
92	0xbe107f89	-0.14111151
93	0x3d22e10e	0.03976541
94	0x3df422c2	0.11920692
95	0x3d25077a	0.040290333
96	0x3d43beba	0.047789313
97	0x3d02de6a	0.03195039
98	0xbb73d5cd	-0.0037206293
99	0x3cfc9526	0.030832838
100	0xbdc9a746	-0.09846358
101	0x3d18389e	0.03716337
102	0xbbdc6a0b	-0.0067265085
103	0xbdc5c5a1	-0.09656835
104	0x3c58059d	0.013184932
105	0x3d9b99ea	0.07597716
106	0xbac08b92	-0.0014690033
107	0xbd2bb482	-0.041920193
108	0x3cef9b02	0.029248718
109	0x3d6855d3	0.056722473
110	0x3d86f02f	0.0658878
111	0xbd0a02d4	-0.033694103
112	0x3d82a1ab	0.06378492
113	0xbcaead0d	-0.021322751
114	0x3d0cbd1f	0.034360047
115	0xbc28c458	-0.010300718
116	0xbcfefb3e	-0.031125661
117	0x3d193667	0.037405398
118	0x3c65b77b	0.014020796
119	0xbc93d861	-0.018047513
120	0xbc324858	-0.010881506
121	0x3cf8afb6	0.030357223
122	0xbc3fcb8c	-0.011706244
123	0x3d175bdf	0.03695285
124	0x3d792168	0.060822874
125	0xbcb91229	-0.022591667
126	0x3c20acf3	0.009806859
127	0xbd1aff88	-0.03784135
128	0x3d8476c0	0.06467962
129	0x3c398260	0.011322588
130	0xbd3de5b8	-0.046361655
131	0x3a982e15	0.0011610413
132	0xbd196599	-0.037450407
133	0x3c5c8228	0.013458766
134	0x3cee5d95	0.029097358
135	0xbd455d84	-0.048184887
136	0xbd705e57	-0.05868372
137	0xbd0e49b3	-0.034738254
138	0x3befd37e	0.007318913
139	0xbd8be447	-0.0683065
140	0xbd083f0c	-0.03326325
141	0x3c866882	0.016407255
142	0x3d73005d	0.05932652
143	0xbb9a1bb8	-0.0047030114
144	0xbd36a321	-0.044589166
145	0xbd91e31c	-0.07123396
146	0x3d295958	0.04134497
147	0x3c8a36e9	0.016871886
148	0xbd042b96	-0.03226813
149	0xbcbf005f	-0.023315607
150	0x3d597b49	0.05309609
151	0x3dc248fa	0.094865754
152	0xbcadfa2b	-0.021237453
153	0x3cf58902	0.029972557
154	0x3d173e46	0.036924623
155	0xbd6011d6	-0.05470451
156	0xbcbb548e	-0.022867467
157	0x3ac79eb8	0.0015229797
158	0xbd1428d7	-0.03617176
159	0x3cbe5558	0.023234054
160	0x3b9d9feb	0.0048103235
161	0x3d194f12	0.037428923
162	0x3cd12260	0.025529087
163	0x3d0b6b5b	0.03403793
164	0xbce90f22	-0.028449599
165	0xbd20f5ef	-0.03929704
166	0x3d0b1949	0.03395966
167	0x3d839fb7	0.064269476
168	0xbd801fc4	-0.06256059
169	0xbd975fec	-0.073913425
170	0x3c383069	0.011242011
171	0x3d9308ee	0.071794376
172	0x3d7fd525	0.06245913
173	0xbd989c47	-0.074516825
174	0xbd840909	-0.06447036
175	0xbcf2e185	-0.029648552
176	0x3d10f84b	0.03539304
177	0xbc703e50	-0.014663294
178	0x3c2b2105	0.010444884
179	0xbce5ac69	-0.028036313
180	0x3dc6837a	0.09693046
181	0xbc92f525	-0.01793916
182	0xbcb69565	-0.022288034
183	0xbd221633	-0.039571952
184	0x3ca0e28a	0.019639272
185	0x3d2167b0	0.039405525
186	0x3cdacb97	0.026708407
187	0xbc267684	-0.010160092
188	0x3ce71d5b	0.02821224
189	0xbc98e74a	-0.018664975
190	0x3b818c5f	0.003953501
191	0xbd8299e6	-0.0637701
192	0xbd7b286b	-0.061317842
193	0xbd3cadfe	-0.04606437
194	0x3d7175f7	0.05895039
195	0xbc7a6d20	-0.0152848065
196	0x3c439acf	0.011938765
197	0xbcc12c10	-0.023580581
198	0xbc187b96	-0.009306809
199	0xbd9642f2	-0.073369876
200	0xbd8d6d85	-0.06905655
201	0xbcff6d45	-0.031180033
202	0x3e0131f7	0.12616716
203	0xbcbd39a5	-0.023098776
204	0xbc3d81af	-0.0115665635
205	0x3bec0521	0.00720276
206	0x3bfe741c	0.007765306
207	0x3be2929e	0.006914451
208	0xbde83b02	-0.1133938
209	0xbd9e40a7	-0.07727175
210	0x3d5d1452	0.053974457
211	0xbd00bfea	-0.031433024
212	0x3da3f762	0.08006169
213	0xbce64cf5	-0.028112868
214	0xbd112be7	-0.03544226
215	0x3c5c8411	0.013459221
216	0x3d842e37	0.06454127
217	0x3d99b05e	0.075043425
218	0x3d86abd3	0.065757416
219	0xbdb89104	-0.090120345
220	0xbdc2b1c1	-0.0950656
221	0xbd832ba7	-0.064048104
222	0x3cf71475	0.030161122
223	0xbc196849	-0.009363242
224	0xbd591973	-0.053002786
225	0x3d3c73f9	0.046009038
226	0x3cb5cc77	0.022192223
227	0xbc918c45	-0.017767081
228	0x3c9fc776	0.01950429
229	0x3cb5678e	0.022144105
230	0xbd652e9b	-0.05595265
231	0xbd858f74	-0.06521502
232	0x3bd88bba	0.0066084536
233	0x3d7161a1	0.058930997
234	0xbb66f3a6	-0.003524044
235	0x3db724dc	0.08942577
236	0x3dcc0149	0.099611826
237	0xbdbaff8a	-0.091307715
238	0x3ca82fd0	0.020530611
239	0xbc617598	-0.013760947
240	0xbce8a799	-0.02840023
241	0xbd89c811	-0.06727613
242	0xbdd6fdea	-0.10497649
243	0x3dbdb739	0.092634626
244	0xbdc6aadf	-0.0970056
245	0xbd161049	-0.036636624
246	0xbdb5edf2	-0.08883275
247	0xbd9243c9	-0.07141835
248	0x3bcb700c	0.0062084254
249	0xbcca1773	-0.024669385
250	0x3ba9b7d4	0.0051793847
251	0x3d689bee	0.05678933
252	0xbdc13158	-0.0943324
253	0x3daf649a	0.0856411
254	0x3d57abb9	0.052654
255	0x3d7f491c	0.062325582

conv2Dblock.15.module.bias f4 [128]
0	0x3b0059bc	0.0019584736
1	0xb884bcc0	-6.329408e-05
2	0xbb391614	-0.002824192
3	0x3a0c4252	0.00053504587
4	0xb925fda5	-0.00015830116
5	0x3b3b68a5	0.0028596309
6	0xba4ef7d9	-0.00078952085
7	0xbaba835c	-0.0014229822
8	0xbad543cc	-0.0016270815
9	0x3ac60762	0.0015108401
10	0x3a8488bb	0.001011155
11	0x3b0ad5fc	0.0021184674
12	0xba86b765	-0.0010278045
13	0x3b20ee99	0.0024556278
14	0x3a68b409	0.0008876925
15	0x3b33d6b4	0.0027441205
16	0x3ab152d9	0.0013528719
17	0x3b2d7f63	0.0026473633
18	0xbb1e7d85	-0.0024183702
19	0x3a885b8f	0.0010403263
20	0xbaa0b910	-0.0012262184
21	0x3ab565eb	0.0013839578
22	0xbaf64811	-0.0018789788
23	0x3ac2af57	0.0014853281
24	0xbb35bef4	-0.0027732225
25	0x3b0f964c	0.0021909652
26	0x3b3669a2	0.0027833958
27	0xb826a82d	-3.973411e-05
28	0x3b21a1d9	0.002466312
29	0x3b1c97fc	0.00238943
30	0x3aae93a7	0.001331915
31	0x3acd0d0c	0.0015644147
32	0xba53efc3	-0.00080847385
33	0x39e91e40	0.0004446376
34	0xb7ce3687	-2.4582505e-05
35	0x3abfdc78	0.0014637848
36	0x3a081cbe	0.0005192271
37	0xbae7729c	-0.0017658058
38	0x3b3b512d	0.002858232
39	0x3b24597b	0.0025077749
40	0x3b232cfb	0.0024898637
41	0xbb141839	-0.0022597446
42	0xba66f278	-0.00088099344
43	0xba87bf59	-0.0010356709
44	0xbb0aa2a0	-0.002115406
45	0x3b00810f	0.0019608175
46	0x3a2472c3	0.00062732043
47	0x3a41330a	0.0007369971
48	0xbab7b955	-0.0014017025
49	0x3aeace26	0.001791422
50	0x3a3a8224	0.00071147294
51	0xb89813b0	-7.251592e-05
52	0x3a237659	0.0006235592
53	0x3aee5124	0.0018182141
54	0xbaf6a9be	-0.0018818898
55	0xbb0b00f7	-0.0021210292
56	0xbab7f0e8	-0.0014033588
57	0x3a5f25bb	0.0008512397
58	0x39c9333c	0.0003837588
59	0xbb1fee74	-0.0024403604
60	0x3b0c9112	0.0021448773
61	0x39e4f15f	0.00043667384
62	0x3b0f5b05	0.002187432
63	0xba58f8e2	-0.00082768325
64	0xba305ceb	-0.0006727713
65	0xbb1b5f47	-0.0023707913
66	0x3aac3b33	0.0013140201
67	0x3ad4070c	0.0016176417
68	0x3b27823d	0.0025559806
69	0xbab4c57e	-0.0013791767
70	0xbaffb4d4	-0.0019508847
71	0x3ac08f1f	0.0014691091
72	0x3aa7ce77	0.001280262
73	0xbb1732f0	-0.0023071133
74	0xbac5177c	-0.0015036906
75	0x3b0b611f	0.0021267605
76	0x3b067388	0.002051564
77	0x3b12ba73	0.0022388964
78	0xbb08370d	-0.0020784766
79	0x39532965	0.00020137949
80	0xbb372cde	-0.0027950327
81	0xbad5ad93	-0.001630234
82	0x3aa13522	0.001229916
83	0xba863d21	-0.0010241607
84	0xbb2ec9ea	-0.0026670643
85	0xbae595d1	-0.0017515962
86	0xb9f3200d	-0.00046372451
87	0x3b3a3ac5	0.0028416377
88	0x3b2d9e0d	0.002649191
89	0xbabc83ec	-0.0014382578
90	0xbad84b54	-0.0016501942
91	0x3ae6c968	0.0017607631
92	0x39a1f045	0.00030887328
93	0x3ae27030	0.0017275866
94	0x3a0d5545	0.00053914293
95	0xbaf62d14	-0.0018781745
96	0x3b263f4e	0.0025367322
97	0xbb0f8eeb	-0.0021905254
98	0x3ab0f109	0.0013499568
99	0x398bb02b	0.000266434
100	0xbb229dfb	-0.0024813402
101	0x3abb431f	0.0014286971
102	0xbb239cb0	-0.002496522
103	0xba596c47	-0.00082940276
104	0xbb3a45e0	-0.0028422996
105	0xbb33d197	-0.0027438158
106	0xbabf6761	-0.0014602953
107	0xbabe50c4	-0.001451992
108	0x3af4db31	0.0018681047
109	0x3a9b88d5	0.0011866341
110	0x3a603cb8	0.00085539697
111	0xba74ecfe	-0.0009343176
112	0xbb038506	-0.0020068302
113	0xbb05058e	-0.00202975
114	0x3b0f424c	0.0021859584
115	0x3a8b44e7	0.0010625393
116	0xb9dec8b3	-0.00042492672
117	0x3a8089ac	0.0009806654
118	0x3acc057d	0.00155656
119	0xbb0b35bd	-0.0021241747
120	0x3afba2c0	0.0019198284
121	0xbb081276	-0.0020762957
122	0xb9aac115	-0.00032568784
123	0xba8de632	-0.001082605
124	0xbb258760	-0.0025257692
125	0xbb2928c1	-0.0025811645
126	0xb8cbc158	-9.7158074e-05
127	0xbb3b0ba7	-0.002854088

conv2Dblock.16.module.weight f4 [128]
0	0x3efb762e	0.491136
1	0x3eddd1a0	0.43323994
2	0x3f0777b8	0.5291705
3	0x3ef747b6	0.482969
4	0x3ed86b00	0.42269135
5	0x3ee5b97c	0.44868076
6	0x3eee3f75	0.4653279
7	0x3f077757	0.52916473
8	0x3edfe1b7	0.43726894
9	0x3eea4610	0.45756578
10	0x3edd2609	0.4319308
11	0x3f0bd5fe	0.546234
12	0x3eeba013	0.46020564
13	0x3ee9025d	0.45509616
14	0x3f128925	0.57240516
15	0x3eefb49e	0.46817487
16	0x3f02086c	0.507941
17	0x3ef90870	0.4863925
18	0x3edb6c28	0.42855954
19	0x3edfc098	0.43701625
20	0x3efd61fe	0.49488825
21	0x3f0a4f3f	0.5402717
22	0x3eed09f8	0.46296668
23	0x3ef97de3	0.48728856
24	0x3efcbf87	0.49364874
25	0x3f000be9	0.50018173
26	0x3efe2be8	0.49642873
27	0x3eee745c	0.4657315
28	0x3ee76ffe	0.4520263
29	0x3ef25cd7	0.47336456
30	0x3ef2e41b	0.47439656
31	0x3ef8a7dd	0.4856557
32	0x3eec5e3f	0.46165654
33	0x3ee2a657	0.44267532
34	0x3ef7da0a	0.48408538
35	0x3eff3ae8	0.4984963
36	0x3ef66ff7	0.48132297
37	0x3ee42bda	0.44564706
38	0x3ed33c4f	0.4125695
39	0x3ee49373	0.44643745
40	0x3f0e3c1c	0.5556047
41	0x3eef6aaa	0.46761066
42	0x3f1b75ab	0.6072642
43	0x3f064d51	0.52461725
44	0x3eeef1a0	0.4666872
45	0x3ef86786	0.48516482
46	0x3ed1c8d7	0.4097354
47	0x3ef29882	0.4738198
48	0x3f0185f5	0.5059503
49	0x3eec1986	0.46113223
50	0x3ee227c6	0.4417097
51	0x3eec1531	0.46109918
52	0x3eefce42	0.4683705
53	0x3efce1de	0.49391073
54	0x3ee67b32	0.45015866
55	0x3ef61815	0.48065248
56	0x3ef81bde	0.4845876
57	0x3eeac1da	0.45851022
58	0x3ecaa0e7	0.39575884
59	0x3f02d663	0.5110838
60	0x3edefff7	0.4355466
61	0x3f018284	0.50589776
62	0x3f029fe0	0.510252
63	0x3efe0ce0	0.49619198
64	0x3ef7d61f	0.4840555
65	0x3eedd167	0.46448824
66	0x3eeb060f	0.4590306
67	0x3f049b30	0.517993
68	0x3eff3e84	0.49852383
69	0x3edd65c1	0.43241695
70	0x3ef3c6d6	0.47612637
71	0x3ee363ca	0.4441207
72	0x3ee8f9c8	0.45503068
73	0x3ef91c5d	0.48654452
74	0x3ef14eac	0.47130334
75	0x3ecd4036	0.40088052
76	0x3ee9fdd3	0.45701465
77	0x3ec5f8af	0.38666293
78	0x3edec8ab	0.43512473
79	0x3ef3b807	0.4760134
80	0x3ef32181	0.474865
81	0x3eec317f	0.46131513
82	0x3ef9de68	0.48802495
83	0x3ef6fc82	0.48239523
84	0x3f0aeb94	0.54265714
85	0x3f00d4bf	0.50324625
86	0x3ee58a5f	0.4483213
87	0x3f143a78	0.57901716
88	0x3f03ae23	0.51437587
89	0x3ec41f78	0.3830526
90	0x3f10806f	0.56445974
91	0x3ee6f762	0.45110613
92	0x3ecd35ba	0.40080053
93	0x3ef1f3c6	0.47256297
94	0x3ee72c28	0.45150876
95	0x3eefe092	0.4685102
96	0x3f02fb05	0.51164275
97	0x3ef5684b	0.47931132
98	0x3eecb8f3	0.46234855
99	0x3ed949b2	0.42439038
100	0x3efb5df6	0.49095124
101	0x3f033d42	0.51265347
102	0x3eedf807	0.46478292
103	0x3f0d9c41	0.5531655
104	0x3ef969b0	0.48713446
105	0x3ef78c2b	0.48349127
106	0x3f0ac643	0.54208773
107	0x3edddf87	0.433346
108	0x3ef32150	0.47486353
109	0x3ef7db52	0.48409516
110	0x3ed922c3	0.42409334
111	0x3ee1efd4	0.44128287
112	0x3ee7e108	0.45288873
113	0x3efcd5bf	0.49381825
114	0x3f0ab627	0.5418419
115	0x3ede0450	0.43362665
116	0x3ef3fe43	0.47654924
117	0x3efee0cb	0.49780878
118	0x3f0a344d	0.53986055
119	0x3eea2606	0.45732135
120	0x3eea8650	0.45805597
121	0x3f01f722	0.5076772
122	0x3eee112d	0.4649748
123	0x3f043bf9	0.5165401
124	0x3f0ad206	0.5422672
125	0x3ef3c6f8	0.4761274
126	0x3ef22ffd	0.47302237
127	0x3eee215f	0.46509835

conv2Dblock.16.module.bias f4 [128]
0	0xbf291168	-0.66042185
1	0xbf214718	-0.62999105
2	0xbf30dd2a	-0.6908747
3	0xbf320efa	-0.695541
4	0xbf1d694c	-0.61488795
5	0xbf2d506e	-0.6770085
6	0xbf430a1d	-0.76187307
7	0xbf2c8f3d	-0.67406064
8	0xbf4366ef	-0.7632894
9	0xbf2d432e	-0.67680633
10	0xbf45647b	-0.77106446
11	0xbeda84c6	-0.42679423
12	0xbf4a6f8e	-0.7907647
13	0xbf385c03	-0.720154
14	0xbf2c288e	-0.6724938
15	0xbf2db5d4	-0.6785557
16	0xbf35bf65	-0.7099517
17	0xbf1dcdc2	-0.61642087
18	0xbf29c153	-0.66310614
19	0xbf388a0a	-0.7208563
20	0xbf25d6c7	-0.6478085
21	0xbf1e4287	-0.6182026
22	0xbf1cfc47	-0.61322445
23	0xbf486664	-0.78281236
24	0xbf1d1cf6	-0.61372316
25	0xbf32021d	-0.69534475
26	0xbf2c1a5d	-0.6722773
27	0xbf358a8d	-0.70914537
28	0xbf29b5d6	-0.66293085
29	0xbf50eadf	-0.81608385
30	0xbf305f12	-0.68895066
31	0xbf3c4424	-0.73541474
32	0xbf1dbc0d	-0.6161507
33	0xbf36ea72	-0.71451485
34	0xbf1dd94b	-0.6165969
35	0xbf3dd243	-0.7414896
36	0xbf397a4e	-0.7245225
37	0xbf4d1ad1	-0.80119044
38	0xbf120cd8	-0.5705085
39	0xbf2671e2	-0.6501752
40	0xbf2280ea	-0.6347796
41	0xbf1829cc	-0.59438777
42	0xbf5ab4f5	-0.8543237
43	0xbf1212e2	-0.5706006
44	0xbf3ddad3	-0.74162024
45	0xbf3883e1	-0.7207623
46	0xbf3cfe39	-0.73825413
47	0xbf46730d	-0.77519304
48	0xbf14934e	-0.5803727
49	0xbf4d3974	-0.8016579
50	0xbf26a814	-0.65100217
51	0xbf18ab1c	-0.5963609
52	0xbf423fbc	-0.758785
53	0xbf1ad1b2	-0.6047622
54	0xbf26b0dd	-0.6511362
55	0xbf405ea3	-0.75144404
56	0xbf317639	-0.6932102
57	0xbf145adc	-0.5795114
58	0xbf3d0994	-0.7384274
59	0xbf2de88b	-0.6793296
60	0xbf1c332e	-0.61015594
61	0xbf471b2a	-0.77775824
62	0xbf589612	-0.8460399
63	0xbf4d32fb	-0.80155915
64	0xbf172337	-0.5903811
65	0xbf3d06e0	-0.73838615
66	0xbf49f73e	-0.78892887
67	0xbf080ed2	-0.53147614
68	0xbf516e57	-0.8180899
69	0xbf33b7c7	-0.70202297
70	0xbf2eb996	-0.6825193
71	0xbefd8ca7	-0.49521372
72	0xbf47214e	-0.77785194
73	0xbf26f0e8	-0.65211344
74	0xbf342274	-0.7036507
75	0xbf32a481	-0.69782263
76	0xbf370cc0	-0.7150383
77	0xbf119d3f	-0.56880563
78	0xbf214e96	-0.6301054
79	0xbf1c31dc	-0.6101358
80	0xbf50966c	-0.81479526
81	0xbf354f2c	-0.7082393
82	0xbf478f60	-0.7795315
83	0xbf1fe030	-0.6245146
84	0xbf3a2cf3	-0.7272484
85	0xbf50d807	-0.8157963
86	0xbf4a7bc0	-0.7909508
87	0xbf07fb1b	-0.5311753
88	0xbf0b54b8	-0.54426146
89	0xbf297c87	-0.6620564
90	0xbed4c6d9	-0.4155796
91	0xbf2d795d	-0.6776331
92	0xbf1e5d7c	-0.61861396
93	0xbf330592	-0.69930375
94	0xbf32159b	-0.6956422
95	0xbf3496be	-0.70542514
96	0xbf3fc094	-0.74903226
97	0xbf4025b8	-0.75057554
98	0xbf3cbcc2	-0.7372552
99	0xbf3ed72d	-0.7454708
100	0xbf1d0887	-0.61341137
101	0xbf4eeab7	-0.80826896
102	0xbf38c47e	-0.72174823
103	0xbf02bbfc	-0.5106809
104	0xbf31d22f	-0.6946134
105	0xbf34ead0	-0.70670795
106	0xbf003959	-0.50087506
107	0xbf26419d	-0.6494387
108	0xbf46f408	-0.7771611
109	0xbf1b3426	-0.6062645
110	0xbf3aa3ea	-0.72906363
111	0xbf2c25a9	-0.67244965
112	0xbf21ee70	-0.6325445
113	0xbf203ff2	-0.6259757
114	0xbf2db6e0	-0.6785717
115	0xbf22908e	-0.6350182
116	0xbf1edf64	-0.6205962
117	0xbf2ce261	-0.67532927
118	0xbee3521a	-0.44398576
119	0xbf1e8feb	-0.6193835
120	0xbf202bc3	-0.62566775
121	0xbf264442	-0.64947903
122	0xbf2f0057	-0.68359894
123	0xbf45a62e	-0.77206695
124	0xbf226740	-0.63438797
125	0xbf2fdc9b	-0.6869599
126	0xbf24eebe	-0.6442679
127	0xbf261c13	-0.6488659
